direction_model.tflite (tflite, 612512 bytes, 14 tensors)

dense_1/bias f2 [6]
00000000: cba7 54a3 b8a5 68aa 04aa 3d2f
-0.03044 -0.01431 -0.02234 -0.05005 -0.047 0.1131

dense/bias f2 [120]
00000000: 422c 74a2 e8a2 1fa4 189e c5a3 1ea3 df28
00000010: 8c28 1cab a926 3aa0 9a2d 6ba0 5f2b 1aac
00000020: 5da0 d12c 102d ada6 a028 c1a7 8e1d ba1f
00000030: 0e96 0526 e621 a2a0 05a4 951d 44a5 a4a9
00000040: 2ca1 63aa 2ea4 aaa4 97a8 5f9f c42a 5d23
00000050: 9b9f fb11 e2a4 28a2 7429 9f2d f52e 75a9
00000060: 142e 42a6 55aa 28aa 1e24 2a2c 48a8 7b2d
00000070: b51e c61d 9d25 eda7 ef16 882a 9e24 2f1a
00000080: 7127 5b2a 392f 3aa5 2d29 06a0 f02d d5a8
00000090: 5fa5 5dad c816 f82c f79e 8da1 c49c 7e9d
000000a0: d82d 222d e72d b5a7 142a 4f2c e69e 1429
000000b0: dc2d 7726 c52d c3aa f3a8 b0a7 afa5 69a5
000000c0: b12e 1b2c 9a26 cd17 fba9 24a6 2ca4 3ea1
000000d0: dea2 7c9e 1f9f ea2d 3591 5690 47a9 a59a
000000e0: e02c 99a0 a6a9 87a8 3e9f 3ba4 8ea7 8e22
0.0665 -0.0126 -0.01349 -0.0161 -0.00595 -0.015175 -0.0139 0.03806
0.03552 -0.05554 0.02602 -0.008255 0.0875 -0.00863 0.0576 -0.0641
-0.00852 0.07526 0.0791 -0.02608 0.03613 -0.03029 0.005424 0.007545
-0.001478 0.02351 0.01152 -0.00905 -0.0157 0.00545 -0.02057 -0.04407
-0.0101 -0.0499 -0.01633 -0.01822 -0.03586 -0.0072 0.05286 0.01438
-0.007427 0.00073 -0.01907 -0.012024 0.0426 0.0878 0.1087 -0.04263
0.095 -0.02444 -0.04947 -0.0481 0.01608 0.06506 -0.03345 0.08563
0.00655 0.00564 0.02193 -0.03096 0.001693 0.05103 0.01804 0.00302
0.02907 0.04965 0.11285 -0.02042 0.04044 -0.00786 0.0928 -0.03775
-0.02098 -0.0838 0.001656 0.07764 -0.0068 -0.01084 -0.004654 -0.005363
0.0913 0.0802 0.0922 -0.0301 0.0475 0.0673 -0.006737 0.03967
0.09155 0.02525 0.09015 -0.05283 -0.03867 -0.03003 -0.0222 -0.02113
0.10455 0.06415 0.02579 0.0019045 -0.04672 -0.02399 -0.0163 -0.01024
-0.01341 -0.006332 -0.006954 0.0924 -0.0006356 -0.0005293 -0.04123 -0.003244
0.0762 -0.00898 -0.04413 -0.03537 -0.007072 -0.01653 -0.02951 0.0128

conv2d_4/bias f2 [50]
00000000: 9c2e 2c26 a9a8 0e9d ab9e 571f 97ac 55a3
00000010: 1e2d dc93 0ea1 40a1 8a2e 6eac 84a5 1aa6
00000020: d027 982a cead ce9a 09a6 5b23 2e30 899f
00000030: fda2 9694 6796 002a b6ac 991f a026 12a4
00000040: a6a6 209d 04a8 2025 a0a3 63a9 88a1 d220
00000050: 6ca4 98aa 25a1 68a8 eba2 59a7 c3a8 74a8
00000060: 76a1 19ac
0.1033 0.02411 -0.0364 -0.004936 -0.00651 0.007168 -0.0717 -0.01432
0.07996 -0.0009594 -0.00987 -0.010254 0.1022 -0.0692 -0.02155 -0.02383
0.03052 0.0515 -0.0907 -0.003323 -0.02357 0.014366 0.1306 -0.00736
-0.01365 -0.00112 -0.001563 0.04688 -0.0736 0.00742 0.02588 -0.0159
-0.02597 -0.005005 -0.03137 0.02002 -0.01489 -0.04208 -0.0108 0.009415
-0.01727 -0.0515 -0.01005 -0.03442 -0.01351 -0.0287 -0.0372 -0.0348
-0.010666 -0.064

conv2d_3/bias f2 [40]
00000000: 789e 10a8 09a1 f1a0 f32a ed25 839c 30aa
00000010: 142c 652e 3998 c918 b4ac 4fa3 689f cb29
00000020: b0a5 8ba5 259e 57a1 98a3 33ae 1817 7119
00000030: e09a c4aa 269e 982a b0aa fc29 269f de0c
00000040: eea1 e4a5 8d9c 13a0 32aa 44a4 b929 9f9f
-0.006317 -0.03174 -0.009834 -0.00965 0.0543 0.02315 -0.004406 -0.04834
0.0637 0.0999 -0.002062 0.002337 -0.0735 -0.014275 -0.007233 0.04526
-0.02222 -0.02165 -0.006 -0.01043 -0.01483 -0.09686 0.001732 0.002657
-0.003357 -0.05286 -0.006004 0.0515 -0.05225 0.04675 -0.00698 0.000297
-0.01158 -0.02301 -0.004444 -0.00796 -0.0484 -0.01666 0.0447 -0.007442

conv2d_2/bias f2 [40]
00000000: c4a2 27ab 2f9f 6ca0 099b 429b 4e9f d39d
00000010: 7fa9 5622 859c daa6 2928 88a0 c8a1 879f
00000020: 7c9c 442b 4c9d fa10 9c9e da99 bfa8 2ea2
00000030: 2c29 8fac 2b9e 8099 2da0 4999 18a1 1099
00000040: 4bac 3b1c e9a9 b023 eba6 e29b 3d14 ada9
-0.013214 -0.05588 -0.007015 -0.00864 -0.003435 -0.003544 -0.007133 -0.005688
-0.04294 0.012375 -0.004414 -0.02676 0.0325 -0.00885 -0.01129 -0.00735
-0.00438 0.05676 -0.005173 0.0006075 -0.006454 -0.002857 -0.03708 -0.01207
0.0404 -0.0712 -0.006023 -0.002686 -0.008156 -0.00258 -0.00995 -0.002472
-0.0671 0.00413 -0.04617 0.015015 -0.02702 -0.003849 0.001035 -0.04434

conv2d_1/bias f2 [30]
00000000: 30a0 6aa2 4eaf 1da2 ebac e29e d990 089c
00000010: b4a8 489d ae14 2cac 269e ab9e 2110 ff1a
00000020: 96ac 13a6 f7a3 259e d6a0 b421 129d e09d
00000030: 5a9e 4caf b49e b320 a49c f4ab
-0.00818 -0.01253 -0.11414 -0.01194 -0.07684 -0.00672 -0.0005918 -0.003937
-0.03674 -0.005157 0.0011425 -0.0652 -0.006004 -0.00651 0.000504 0.003416
-0.07166 -0.02373 -0.01556 -0.006 -0.009445 0.01114 -0.00495 -0.005737
-0.006203 -0.114 -0.006546 0.00918 -0.00453 -0.06213

conv2d/bias f2 [30]
00000000: 47a0 249e a1a0 e09d 2d9b fd9b 8a9e 06ad
00000010: b49c ae9a b69b 939f 0e9f ebae c39e d8a0
00000020: 4f9c dd9f 65a0 e324 bea1 9cae d2a5 c618
00000030: e29e 2721 f5a3 a49d 2c9e f29f
-0.008354 -0.005997 -0.00904 -0.005737 -0.003504 -0.0039 -0.006386 -0.0785
-0.004593 -0.003262 -0.003765 -0.007397 -0.00689 -0.1081 -0.006603 -0.00946
-0.004208 -0.00768 -0.00858 0.01909 -0.011215 -0.1033 -0.02274 0.00233
-0.00672 0.01006 -0.01554 -0.00551 -0.006027 -0.00776

sequential/dense/MatMul f2 [120, 900]
00000000: 32a1 262c 0dae 9a23 f429 93ac f5a8 d028
00000010: dc2d c42d 30a7 df21 72aa 2a23 fda6 68ac
00000020: 5c1e fc28 a129 98a6 8da9 39a2 d82b 9c23
00000030: 7e2c f628 08a7 532c 2ca7 652c 622b fe1c
00000040: e32a 722d 49ad 3f2d 1b2a 60a9 8ea7 8da2
00000050: feaa 60ab 09a8 5c2d 5d2a 332e b42d ddab
00000060: 4d2b eaa7 46a7 46a4 14aa ff2c 0e2d 6728
00000070: fa9c 5aab 4e28 bd20 24a5 309f 07a7 f7a8
00000080: 522a 4790 972c 972c e0ae 0aa8 7e21 db2d
00000090: f62b 359e c0a9 faac c22d 5328 d72c 0d2a
000000a0: eeaa 9128 c22b 271c 7ea8 8725 082d 1523
000000b0: c228 0b2c 712b 06a5 d726 a428 ee27 fd24
000000c0: e4aa 0e27 40aa 7994 0420 1e21 abae a42b
000000d0: ac28 c42e 1e2e 3527 d727 4628 0bab 17aa
000000e0: eb26 03a9 a920 2fae 0a20 629c 7c27 95a8
000000f0: 922c 401c 9ba9 7896 932c 94a5 81ab d72f
00000100: cea5 25ab a1a5 232c 2aa9 6aac 42a2 702a
00000110: 1caa 2da5 1825 87a2 5428 92a2 85a6 3ba4
00000120: b72c 58a9 b122 fcab e6a7 56a8 98a7 9629
00000130: 2fa5 a224 c72c f1ac b7ad 51a9 902c a3ad
00000140: 082d 072c 7025 c129 e9a9 c429 649f 4323
00000150: d22a 4229 712e a728 fe98 5eac 2da6 2e2a
00000160: d52a 062e 84a0 9b28 da9a a329 c2a8 939e
00000170: 951d 592e 6f19 31a8 0d20 68ac 46a9 d5aa
00000180: 609c 8fa8 3ca4 5928 3da4 4cae 55a8 691b
00000190: 5b2d eda9 10a8 4ca8 f729 4828 b8a3 a229
000001a0: 912a 1a2b 902c 2d2b 7327 4ea2 0ba4 7eac
000001b0: bbad 1e2b b6a9 d72a 8ea8 d530 602b 1519
000001c0: c6a9 92aa f59f cc29 9ca6 2f24 209b 452a
000001d0: e728 5e2e 7ea7 caa8 f721 3e2a cc27 8729
000001e0: 6729 3625 a9a9 ada9 21a5 8d17 fd25 d021
000001f0: c6a7 12ac 692d b3ab 21aa cdab d72c 73a0
-0.01015 0.0648 -0.09454 0.01485 0.0465 -0.0715 -0.03873 0.0376
0.09155 0.0901 -0.02808 0.01147 -0.05035 0.01399 -0.0273 -0.06885
0.00621 0.03894 0.04398 -0.02576 -0.04337 -0.01215 0.06128 0.01486
0.0702 0.03876 -0.02747 0.06757 -0.02802 0.06866 0.05768 0.004875
0.0538 0.0851 -0.0826 0.082 0.0477 -0.042 -0.02951 -0.012794
-0.05463 -0.05762 -0.03152 0.08374 0.0497 0.09686 0.0891 -0.06143
0.05704 -0.03091 -0.02841 -0.0167 -0.0475 0.07806 0.079 0.0344
-0.00486 -0.05743 0.03363 0.009254 -0.02008 -0.00702 -0.02745 -0.0388
0.04938 -0.000522 0.0717 0.0717 -0.1074 -0.03156 0.01073 0.0915
0.0622 -0.00606 -0.04492 -0.07776 0.08997 0.03378 0.0756 0.04727
-0.05414 0.03568 0.0606 0.004055 -0.0351 0.02159 0.0786 0.01383
0.03717 0.0632 0.05814 -0.01962 0.02672 0.03625 0.03098 0.01949
-0.05383 0.02756 -0.04883 -0.001092 0.00784 0.009995 -0.1042 0.0597
0.0365 0.1057 0.0956 0.02815 0.03062 0.0334 -0.05502 -0.04758
0.02702 -0.03915 0.0091 -0.0966 0.00789 -0.00428 0.02924 -0.0358
0.0714 0.00415 -0.0438 -0.001579 0.0715 -0.02179 -0.05862 0.1225
-0.02267 -0.05582 -0.02199 0.06464 -0.04034 -0.069 -0.01222 0.0503
-0.04773 -0.02022 0.0199 -0.01275 0.0338 -0.01283 -0.02547 -0.01653
0.07367 -0.04175 0.01307 -0.06238 -0.03085 -0.03387 -0.02966 0.04364
-0.02025 0.0181 0.07465 -0.0772 -0.0893 -0.04153 0.0713 -0.0881
0.0786 0.0629 0.02124 0.04495 -0.04617 0.04504 -0.007217 0.01418
0.05328 0.04108 0.10065 0.03635 -0.002438 -0.06824 -0.02412 0.04828
0.05338 0.0941 -0.00882 0.03598 -0.003345 0.04404 -0.03717 -0.00642
0.00545 0.0992 0.002653 -0.03275 0.00791 -0.06885 -0.0412 -0.05338
-0.004272 -0.0356 -0.01654 0.03397 -0.01656 -0.0984 -0.03384 0.003618
0.0837 -0.0463 -0.03174 -0.03357 0.0466 0.03345 -0.015076 0.044
0.0513 0.05548 0.0713 0.05606 0.0291 -0.012314 -0.0158 -0.0702
-0.08954 0.0556 -0.04462 0.05344 -0.03558 0.151 0.05762 0.002481
-0.0451 -0.05133 -0.00777 0.0453 -0.02582 0.01634 -0.003479 0.04898
0.0383 0.0995 -0.02927 -0.0374 0.01165 0.04877 0.03046 0.04318
0.0422 0.02036 -0.04422 -0.04434 -0.02003 0.001843 0.02339 0.01135
-0.03036 -0.0636 0.08453 -0.06015 -0.04788 -0.06094 0.0756 -0.00869

sequential/dense_1/MatMul f2 [6, 120]
00000000: e6af 952c 17b3 b731 90b2 2dae 19b3 6eae
00000010: 1ab2 8d2d eead 1eae 3b2c e0b1 6e25 ce30
00000020: 9e20 d2b2 dbae c1b1 a32a e0ae 8e29 f7b0
00000030: b723 b52b 6fad e42d b2b0 4529 78ad 1cb3
00000040: ce31 58b1 ae30 39af eeac ad2b 46af 9032
00000050: 172f f2b4 62a9 1731 429d 28af a023 c42d
00000060: 4131 f32f 9c30 02ab 002f 532d 4ab3 50b0
00000070: e7b1 6933 ec2c 632c f6ac fba6 48b1 33b0
00000080: ea2e 9cad 15b2 6c32 bfb0 ed30 7aae 95b1
00000090: d232 be2d c9ac 54b0 db2e e125 7c30 d2ab
000000a0: 6e20 abae 522b 7bb0 8c32 e733 082f 8eb2
000000b0: f7ae b1a4 7331 1aa7 b1aa 1531 63ac ca30
000000c0: 2a2b f2aa b7aa 7eb3 4233 f4b1 722e 9cb1
000000d0: 822c c632 ecb0 232f d8b2 58a0 58ad 3cac
000000e0: 6c2d 5baf ed31 f3a8 7fb1 e92a 1e30 6a2e
000000f0: 6cad 90b2 5ab2 a7b2 54a2 fe31 cfad 9ab2
00000100: 75a4 b3ac d426 da2c 25b3 fea0 21aa 392f
00000110: d7b0 082d 862f cdb2 24ae df32 cfac 4e23
00000120: 14ac 7d2b a032 fa2a b22c bea1 712e 1733
00000130: 6632 feaa 7fb2 81b0 3fb1 34b0 6e32 4830
00000140: 33aa 97a4 f2b2 cfb1 7fb3 872c 2032 4129
00000150: e231 1430 d6b0 a430 8aa3 fd31 1331 1bae
00000160: c4b2 4431 cbb3 83b0 609f 29b4 6d29 b0b0
00000170: 7e32 9e1f 39b1 442f 4d30 f1ad 54a6 bda4
00000180: 90ad 4930 07ac 02a4 04b0 6e2a 70b2 4999
00000190: 742e fc29 55b0 b826 27b1 f52d 32b0 5eb1
000001a0: b9ac 3c25 bea7 0e23 8d30 3031 8da2 6f30
000001b0: 30a8 5db2 7cb0 a9b3 b428 0d31 45b2 de29
000001c0: 8732 4f2d 5eae ff27 2830 33b0 c229 bdb1
000001d0: 70ae 2831 1a29 1231 7222 ac2c 2c26 34b2
000001e0: 67ac 652f 2a2f 6d30 d026 45ac 42b1 2332
000001f0: 59ae 5ab1 3db1 3131 56b0 5a2e fbab baae
-0.1234 0.0716 -0.2216 0.1786 -0.2051 -0.0965 -0.2218 -0.10046
-0.1907 0.08673 -0.09265 -0.0956 0.0661 -0.1836 0.02121 0.1501
0.00902 -0.2131 -0.1071 -0.1798 0.05185 -0.1074 0.0434 -0.1552
0.01507 0.0602 -0.0849 0.09204 -0.1467 0.04117 -0.08545 -0.2222
0.1814 -0.167 0.1462 -0.11285 -0.077 0.05997 -0.11365 0.2051
0.1108 -0.309 -0.04205 0.159 -0.005135 -0.1118 0.01489 0.0901
0.1642 0.1242 0.144 -0.05475 0.1094 0.0832 -0.2278 -0.1348
-0.1844 0.2316 0.0769 0.06854 -0.0775 -0.02727 -0.165 -0.1312
0.10803 -0.08765 -0.1901 0.2007 -0.1483 0.1539 -0.1012 -0.1744
0.2131 0.0897 -0.07477 -0.1353 0.1071 0.02296 0.1401 -0.0611
0.00865 -0.1042 0.0572 -0.14 0.2046 0.247 0.10986 -0.2048
-0.1088 -0.01833 0.1703 -0.02774 -0.05228 0.1588 -0.06854 0.1497
0.05597 -0.05426 -0.05246 -0.2341 0.2268 -0.186 0.1007 -0.1753
0.07043 0.2117 -0.1538 0.1115 -0.2139 -0.008484 -0.0835 -0.06616
0.0847 -0.1149 0.1852 -0.03867 -0.1718 0.054 0.1287 0.1002
-0.0847 -0.2051 -0.1985 -0.2079 -0.01236 0.1873 -0.09076 -0.2063
-0.01741 -0.0734 0.02667 0.0758 -0.2233 -0.00975 -0.04788 0.11285
-0.1512 0.0786 0.11755 -0.2125 -0.09595 0.2147 -0.07513 0.01427
-0.0637 0.0585 0.207 0.0545 0.07336 -0.011215 0.10065 0.2216
0.2 -0.05463 -0.203 -0.1407 -0.164 -0.1313 0.2009 0.1338
-0.04843 -0.01793 -0.217 -0.1815 -0.2343 0.07074 0.1914 0.04105
0.1838 0.1274 -0.1511 0.145 -0.014725 0.1871 0.1586 -0.0954
-0.2114 0.1646 -0.2435 -0.141 -0.007202 -0.26 0.0424 -0.1465
0.2029 0.00744 -0.1632 0.1135 0.1344 -0.09283 -0.02472 -0.01851
-0.0869 0.1339 -0.0629 -0.01566 -0.1255 0.05023 -0.2012 -0.00258
0.1008 0.04675 -0.1354 0.02625 -0.161 0.0931 -0.1311 -0.1677
-0.0738 0.02045 -0.03024 0.01378 0.1422 0.1621 -0.012794 0.1385
-0.0327 -0.1989 -0.1401 -0.2394 0.03674 0.1578 -0.1959 0.04584
0.204 0.08295 -0.0995 0.03123 0.1299 -0.1312 0.04498 -0.1793
-0.1006 0.1611 0.03986 0.1584 0.01259 0.073 0.02411 -0.1938
-0.0688 0.11554 0.11194 0.1383 0.02661 -0.0667 -0.1643 0.1918
-0.0992 -0.1672 -0.1637 0.1622 -0.1355 0.09924 -0.06235 -0.1051

sequential/conv2d/Conv2D f2 [30, 11, 11, 1]
00000000: b11d 8627 eba4 aea9 f595 05a6 2da9 31a5
00000010: 16a9 96a9 09a4 b7a0 72a8 40a8 9a1c c7a3
00000020: 7fa8 71a6 fb25 e2a0 5224 7287 a793 bf1b
00000030: 8a21 6b9f 33a9 dda9 5525 8aa0 5da8 ada6
00000040: ff21 8927 1624 9a99 5ea9 9e23 cd26 ce20
00000050: 4724 85a1 f593 ec24 571e a314 1f9c 791e
00000060: 6818 43a9 1eaa a925 23a0 c525 38a5 4f96
00000070: d29d 5a25 029a 1b21 971c 8c23 7a1d faa8
00000080: a520 4da8 dea5 9c23 02a3 80a3 2027 c11f
00000090: 44a8 78a4 3024 9a27 d425 8d93 9ea8 6423
000000a0: 24a0 1827 bb23 3d27 4e20 eb26 08a9 0f19
000000b0: d81b 0ea4 a999 6923 1faa 17a8 1eaa 4fa9
000000c0: aba6 8ca2 efa4 f9a9 f898 06a2 bca7 91a9
000000d0: e99d 9421 8427 baa8 20a4 cb21 a31b d325
000000e0: 7ba8 e8a3 f7a9 9c26 d321 a69c a1a1 ca9f
000000f0: 6627 7fa8 32a3 b3a9 5e1c 24a8 1527 c5a3
00000100: d11d d919 2f24 1fa5 21a9 319c bb25 08a2
00000110: 1a22 faa0 3ca6 0726 f1a9 581f 551e 42a3
00000120: c29f e021 60a9 a193 3ca0 039f e91f c8a7
00000130: 43a4 87a4 74a9 959f af24 f0a7 c693 3d25
00000140: 1027 4ba9 67a8 a020 7c22 76a6 a9a6 321a
00000150: 3424 c2a4 f024 e1a9 881d 45a0 8627 64a0
00000160: 0d24 daa2 ce1c 6724 a724 0aa8 aca8 6420
00000170: 40a9 26a8 a78b 3aa6 7f25 30a4 5099 9c1d
00000180: 7ea6 481c 26a9 71a3 43a4 29a9 aca3 8726
00000190: 6327 0728 0f9a f524 92a4 c3a9 d7a8 b1a1
000001a0: 0ea9 d192 1523 f4a0 9f25 4328 d49a 31a7
000001b0: f4a4 91a5 6625 2ca6 68a8 9c21 89a3 9f26
000001c0: c525 13a4 74a4 3d26 33a9 5ca9 caa7 6522
000001d0: 9c27 0124 2b26 6ba4 0124 12a0 bca7 7da4
000001e0: f89d 0ba6 9b9e bba0 a9a3 7022 9525 d926
000001f0: b022 e999 a828 b6a7 191f 75a6 dea8 de23
0.005558 0.02939 -0.01921 -0.04437 -0.001454 -0.02351 -0.04044 -0.02028
-0.03973 -0.04364 -0.01576 -0.00921 -0.03473 -0.0332 0.004494 -0.01519
-0.03513 -0.02516 0.02336 -0.00954 0.01688 -0.0001136 -0.000934 0.003782
0.01082 -0.007244 -0.04062 -0.0458 0.02083 -0.008865 -0.0341 -0.02608
0.01171 0.02943 0.01596 -0.002735 -0.04193 0.01488 0.02657 0.009384
0.01671 -0.01078 -0.0009713 0.01923 0.00619 0.001132 -0.004025 0.00632
0.002151 -0.0411 -0.0478 0.02211 -0.00808 0.02254 -0.02039 -0.00154
-0.005684 0.0209 -0.002934 0.00997 0.004482 0.01474 0.00535 -0.03888
0.00907 -0.0336 -0.02292 0.01486 -0.01369 -0.01465 0.02783 0.007572
-0.03333 -0.01746 0.01636 0.0297 0.02277 -0.0009217 -0.03607 0.014435
-0.00809 0.02771 0.0151 0.02827 0.00841 0.02702 -0.0393 0.00247
0.00383 -0.01584 -0.002764 0.01447 -0.04782 -0.03195 -0.0478 -0.04147
-0.02605 -0.01279 -0.01927 -0.04666 -0.002426 -0.011765 -0.03021 -0.0435
-0.00577 0.010895 0.02936 -0.03693 -0.01611 0.011314 0.003729 0.02275
-0.035 -0.01544 -0.0466 0.02582 0.011375 -0.00454 -0.010994 -0.007607
0.0289 -0.03513 -0.01405 -0.04453 0.004265 -0.03235 0.02766 -0.015175
0.00568 0.002855 0.01634 -0.02 -0.04007 -0.004093 0.02238 -0.01178
0.01192 -0.00972 -0.02435 0.02354 -0.04642 0.00717 0.006184 -0.014175
-0.007576 0.011475 -0.042 -0.0009313 -0.00827 -0.006847 0.007725 -0.0304
-0.01665 -0.01768 -0.0426 -0.007404 0.0183 -0.031 -0.000949 0.02046
0.02759 -0.04135 -0.0344 0.00903 0.012665 -0.02524 -0.02602 0.003025
0.01642 -0.01859 0.01929 -0.04593 0.0054 -0.00834 0.02939 -0.008575
0.01582 -0.01338 0.004692 0.0172 0.01817 -0.03156 -0.0365 0.008575
-0.04102 -0.0324 -0.0002335 -0.02432 0.02147 -0.01636 -0.002594 0.005478
-0.02536 0.00418 -0.04022 -0.014534 -0.01665 -0.0403 -0.014984 0.0255
0.02885 0.03146 -0.002958 0.01936 -0.01785 -0.045 -0.0378 -0.011116
-0.0395 -0.000832 0.01383 -0.009674 0.02196 0.0333 -0.003334 -0.02809
-0.01935 -0.02174 0.02109 -0.02411 -0.03442 0.010956 -0.01472 0.02586
0.02254 -0.01591 -0.0174 0.02437 -0.04062 -0.04187 -0.03043 0.01249
0.02972 0.01564 0.0241 -0.01726 0.01564 -0.00795 -0.03021 -0.01753
-0.00583 -0.0236 -0.00645 -0.00924 -0.01496 0.01257 0.0218 0.02675
0.01306 -0.002886 0.03638 -0.03012 0.00693 -0.02522 -0.03802 0.015366

sequential/conv2d_1/Conv2D f2 [30, 9, 9, 30]
00000000: 02a5 3fa4 32a6 cca3 5b27 fba3 0290 16a7
00000010: c7a5 c3a0 7224 eda8 a3a3 051a c324 c6a6
00000020: 9f24 d3a7 f123 a425 8497 ba25 4526 0724
00000030: fa21 aa22 73a6 0429 59a5 d723 6725 7d1c
00000040: 06a7 ea25 2e26 2d26 5018 9a1b 7aa7 bc25
00000050: 7327 11a9 211f ec1d 2ba6 3026 25a4 6023
00000060: 0ea9 119a f21f 0b24 999e 40a6 8828 5320
00000070: 5918 f2a4 86a6 06a2 3da9 6c27 b3a8 64a4
00000080: 7424 4ba4 8a9f a5a7 6ea6 e5a1 4a9d 2494
00000090: 67a2 d4a4 efa6 0026 5d21 6f9a 8225 1487
000000a0: 1fa5 19a8 98a6 7b9d 1729 a09d 1f1b 0b20
000000b0: 5ea6 86a6 529a 56a8 159d 4ba4 b727 cc9f
000000c0: 2720 16a1 909c 5da4 ef18 fc24 069d 4120
000000d0: 8821 98a2 e7a5 4b9c 6b98 27a1 301a 3f19
000000e0: 5aa2 4e1c 6821 1ba2 3da8 bfa8 5324 b4a6
000000f0: 40a9 478f 4523 620f 611f 32a5 52a6 4f24
00000100: 65a2 0ca7 32a8 df23 5a23 eaa8 26a2 a622
00000110: 9b17 5ea8 5b24 5616 aaa7 5f1c 8ea8 b0a8
00000120: a426 999f c424 8620 bf24 95a1 fa99 0519
00000130: 43a1 1aa7 9da1 06a0 9f1c 8025 719d 6628
00000140: 3a1a 08a9 7ea3 049a 54a6 1123 3325 2221
00000150: 19a9 0629 2021 651c 4026 a122 05a9 799d
00000160: e9a6 95a5 1aa5 a325 91a8 e216 47a6 04a3
00000170: 8fa6 e810 f127 e4a5 df27 7602 c524 6e99
00000180: 90a4 f28a 7028 fb27 92a6 be26 7aa4 5e27
00000190: 6c20 2aa8 f523 a6a7 96a6 af22 05a8 5d1d
000001a0: b990 f9a1 f8a6 47a7 b7a5 0ba9 c1a6 14a8
000001b0: 9224 36a9 70a8 0f27 e926 a81d eb20 5725
000001c0: 68a7 8023 5da3 9122 8fa5 6aa5 4099 ff25
000001d0: 5fa8 4224 4da5 2ca1 a4a2 6da1 0ea8 7a25
000001e0: d124 2b25 b4a5 4826 c427 8da6 f29c 9425
000001f0: 8426 611f ba1c b025 7525 e2a6 55a5 c0a1
-0.01956 -0.01659 -0.0242 -0.01523 0.02873 -0.01559 -0.000489 -0.02768
-0.02257 -0.0093 0.01736 -0.03848 -0.014915 0.00294 0.0186 -0.02646
0.01805 -0.03056 0.01551 0.02203 -0.001835 0.02237 0.02449 0.01573
0.01167 0.013016 -0.02519 0.03918 -0.02089 0.01531 0.0211 0.004383
-0.02744 0.0231 0.02414 0.02412 0.002106 0.003712 -0.0292 0.0224
0.0291 -0.03958 0.00696 0.005783 -0.0241 0.02417 -0.01619 0.014404
-0.0395 -0.002962 0.00776 0.0158 -0.006443 -0.02441 0.0354 0.008446
0.002123 -0.01932 -0.02548 -0.011765 -0.04092 0.02899 -0.0367 -0.01715
0.0174 -0.01677 -0.007362 -0.02986 -0.02512 -0.01151 -0.005165 -0.001011
-0.012505 -0.01886 -0.02708 0.02344 0.010475 -0.003141 0.02151 -0.000108
-0.02 -0.032 -0.02576 -0.005352 0.03976 -0.005493 0.003477 0.0079
-0.02487 -0.02548 -0.003086 -0.03387 -0.004963 -0.01677 0.03014 -0.007614
0.00811 -0.00993 -0.004456 -0.01704 0.002409 0.01947 -0.004906 0.00831
0.0108 -0.01288 -0.02306 -0.004192 -0.002157 -0.01006 0.003021 0.002562
-0.012405 0.004204 0.01056 -0.011925 -0.0331 -0.03708 0.01689 -0.02618
-0.04102 -0.0004442 0.0142 0.0004506 0.007206 -0.0203 -0.02469 0.01683
-0.01249 -0.02753 -0.03278 0.01537 0.01436 -0.0384 -0.01201 0.012985
0.001857 -0.03412 0.01701 0.001547 -0.02994 0.00427 -0.03558 -0.03662
0.02594 -0.00742 0.01862 0.008835 0.01854 -0.0109 -0.002918 0.00245
-0.01028 -0.02774 -0.01096 -0.00786 0.004513 0.02148 -0.005314 0.03436
0.00304 -0.0393 -0.01463 -0.002937 -0.02472 0.0138 0.02031 0.010025
-0.03983 0.03925 0.01001 0.00429 0.02441 0.01295 -0.0392 -0.005344
-0.027 -0.0218 -0.01993 0.02202 -0.03568 0.00168 -0.02452 -0.0137
-0.02562 0.000599 0.03102 -0.02301 0.03075 3.755e-05 0.01863 -0.002651
-0.01782 -0.000212 0.03467 0.03117 -0.02567 0.02634 -0.01749 0.02878
0.00864 -0.03253 0.01554 -0.02988 -0.02573 0.013054 -0.0314 0.005238
-0.0005765 -0.011665 -0.02722 -0.02843 -0.02232 -0.0394 -0.02638 -0.03186
0.01785 -0.0407 -0.03467 0.02757 0.027 0.005524 0.009605 0.02086
-0.02893 0.01465 -0.01438 0.012825 -0.02171 -0.02115 -0.002563 0.02342
-0.03415 0.01663 -0.0207 -0.0101 -0.01297 -0.0106 -0.03168 0.0214
0.01881 0.02019 -0.02228 0.02454 0.03033 -0.02559 -0.00483 0.02179
0.02545 0.007206 0.004616 0.02222 0.02132 -0.02689 -0.02083 -0.01123

sequential/conv2d_2/Conv2D f2 [40, 7, 7, 30]
00000000: 5d23 3221 ad1d 4aa8 e121 28a4 3ca8 201f
00000010: 6b26 b4a9 f826 d122 2528 7ba4 4aa8 891e
00000020: 74a3 d0a6 b428 6227 8fa2 dda5 51a0 4828
00000030: fb24 4924 6028 da22 52a5 a1a4 1aa5 95a6
00000040: 5520 438e 36a3 bc24 6d26 4227 1728 7526
00000050: 3e28 3aa9 1ea9 18a8 50a0 a2a2 4ca7 6924
00000060: 9e28 fca4 8e23 b89c 8d24 6696 4e99 02a6
00000070: d5a6 e7a6 3527 33a3 2fa9 eca0 6425 bf19
00000080: 12a7 5097 1f25 8821 5ca8 2125 e01c 73a7
00000090: 40a1 f825 27a9 ad25 6da4 b425 80a3 9122
000000a0: 5a21 1e11 1921 9aa8 78a5 40a2 b796 f9a7
000000b0: b397 8921 3ca6 16a8 25a5 d7a8 e6a2 0027
000000c0: c3a8 c895 e626 991b 641f b71d 7e90 f227
000000d0: e7a5 0d9a dea7 e922 c625 24a7 19a9 18a2
000000e0: 7fa7 4f28 7328 4926 06a8 75a7 c325 0daa
000000f0: aba7 5d28 78a4 8f21 7721 5982 7e22 7a25
00000100: 1c25 e8a9 3ca4 21a4 da24 e8a0 dca5 2aa8
00000110: dfa9 2e28 a2a3 f29d e4a2 d2a8 5ea8 5c9f
00000120: 94a4 4928 a9a0 4594 45a1 0ea7 2ba2 5e20
00000130: 4025 769e 9f22 3e9d ee25 28a7 81a6 c921
00000140: b5a5 acab 2321 2783 47a8 e118 a993 4ea7
00000150: 0e22 8aa9 1b28 cf21 2920 6fa7 8827 39a1
00000160: d0a3 011b 85a7 05a8 9ba3 1ba4 98a4 4623
00000170: 4ca9 35a6 9b21 07a5 7614 5624 78a8 52a9
00000180: baa2 6fa4 4a19 a58f 03a2 91a2 61a1 6a28
00000190: 28a6 3ba8 e4a6 cea8 1812 2820 85a7 3aa9
000001a0: ff22 9fa6 cea1 5b28 1e28 89a4 7fa8 e8a1
000001b0: 2b27 d49c 70a4 b7a3 27a8 778f faa5 3ca8
000001c0: e51c fb28 6328 c619 08a4 a625 cca1 c9a0
000001d0: bba6 d925 3fa8 589a 0d28 8528 f5a7 16a4
000001e0: 0fa9 cfa2 899f 9328 50a2 5aa1 3223 45a2
000001f0: a0a6 601e d0a8 92a5 7da9 9985 cba5 da28
0.01438 0.01015 0.005543 -0.0335 0.01148 -0.01624 -0.03308 0.006958
0.02507 -0.04456 0.02722 0.01331 0.03238 -0.0175 -0.0335 0.006382
-0.01456 -0.02661 0.03674 0.02884 -0.01281 -0.0229 -0.00843 0.03345
0.01945 0.01674 0.03418 0.01338 -0.02078 -0.01808 -0.01993 -0.02571
0.00846 -0.0003822 -0.014084 0.0185 0.0251 0.02835 0.03195 0.02522
0.03314 -0.04083 -0.03998 -0.03198 -0.00842 -0.012955 -0.0285 0.01723
0.03607 -0.01947 0.014755 -0.00461 0.01778 -0.001562 -0.00259 -0.02347
-0.02669 -0.02696 0.02815 -0.01406 -0.0405 -0.00961 0.02106 0.002806
-0.02762 -0.001785 0.02 0.0108 -0.03406 0.02003 0.00476 -0.0291
-0.010254 0.02332 -0.04025 0.02217 -0.01729 0.02228 -0.01465 0.012825
0.01045 0.0006247 0.00996 -0.03595 -0.02136 -0.01221 -0.001639 -0.03114
-0.00188 0.01081 -0.02435 -0.03192 -0.0201 -0.0378 -0.01347 0.02734
-0.0372 -0.001411 0.02695 0.00371 0.007217 0.00558 -0.0005484 0.03104
-0.02306 -0.002954 -0.03073 0.0135 0.02255 -0.0279 -0.03983 -0.0119
-0.02928 0.03366 0.03476 0.02455 -0.03143 -0.02913 0.0225 -0.04727
-0.02995 0.0341 -0.01746 0.01086 0.01067 -3.58e-05 0.01268 0.0214
0.01996 -0.04614 -0.01654 -0.01613 0.01895 -0.00958 -0.02289 -0.03253
-0.04587 0.03265 -0.01491 -0.005806 -0.01346 -0.03766 -0.03412 -0.007187
-0.01788 0.03348 -0.0091 -0.001042 -0.01029 -0.02756 -0.01205 0.00853
0.02051 -0.00631 0.01293 -0.00512 0.02316 -0.02795 -0.0254 0.0113
-0.0223 -0.05994 0.01003 -4.81e-05 -0.03342 0.002382 -0.000935 -0.02853
0.011826 -0.04327 0.03207 0.011345 0.008125 -0.02904 0.02942 -0.0102
-0.01526 0.00342 -0.02937 -0.0314 -0.014854 -0.01604 -0.01794 0.014206
-0.04138 -0.02425 0.01095 -0.01964 0.001089 0.01694 -0.0349 -0.04156
-0.01314 -0.01732 0.002583 -0.0004666 -0.01174 -0.012825 -0.010506 0.0345
-0.02405 -0.03305 -0.02692 -0.03754 0.000744 0.00812 -0.02937 -0.04083
0.013664 -0.02586 -0.01134 0.03403 0.03217 -0.01772 -0.03513 -0.011536
0.028 -0.004715 -0.01733 -0.01507 -0.03244 -0.0004556 -0.02335 -0.03308
0.00478 0.0389 0.03427 0.00282 -0.01575 0.02206 -0.01132 -0.009346
-0.02629 0.02284 -0.03317 -0.003098 0.03165 0.0353 -0.03108 -0.01596
-0.03952 -0.0133 -0.00736 0.03574 -0.01233 -0.01045 0.01405 -0.012245
-0.02588 0.006226 -0.0376 -0.02176 -0.04288 -8.54e-05 -0.02263 0.0379

sequential/conv2d_3/Conv2D f2 [40, 5, 5, 40]
00000000: fc23 dca6 f021 59a8 6f20 9aa8 212b 4ba8
00000010: 2aa0 3f21 b8a8 15a1 5799 f2a8 2aa9 d2a4
00000020: b328 75ab 0da9 97a2 849d 7a29 2925 df2a
00000030: f8a3 3729 2a29 18a9 969b d2a7 fe1c 82a6
00000040: 65a3 752b 0924 1828 7125 9e2a 2022 50a8
00000050: bb29 0029 b0a5 e023 eba8 8622 cea4 8ca1
00000060: 9e9d e1a9 1028 092b 1ba9 f714 a5aa 06a9
00000070: 7529 daa8 f7a8 7f99 dea7 3e2b a720 9f2a
00000080: 93a8 7da6 39a3 5ba7 9021 062a 6126 9528
00000090: 67a9 b70e bba8 8aa7 2b27 ed26 5526 6128
000000a0: 422b 1ea3 4e2a 8aa8 c92a 009c 0aa4 7a29
000000b0: 2c26 6e21 8aa8 7ea9 e4aa 7aa8 79a5 d9a7
000000c0: 9925 2ba9 479c f0a6 642b aca5 ac27 3c28
000000d0: 39a5 36a6 d7a6 4e29 1226 4c2b 4b9b 96ab
000000e0: dcab 79a4 bd8d af23 63a5 69a5 5528 cc28
000000f0: fa28 cc27 2e2b 4aa8 26a6 9ba6 bfa8 27a5
00000100: 01a9 552a f129 6024 00a7 3ea9 58a4 f61c
00000110: 99a8 eb22 41a6 4227 2da9 8ca8 57a7 3124
00000120: a1a1 daa8 cb9c 7229 e3aa b229 562a 41a8
00000130: c027 d229 2eaa 442a eeaa b823 65a1 b0aa
00000140: 62a9 3418 e3a7 8826 bba6 29a5 16aa 0c28
00000150: 9428 1c23 e3a9 d9a0 53a5 b9a9 4c2a 5ba9
00000160: 8628 86a4 2c9f 982a a7a8 0126 d626 d7a0
00000170: 3ea8 2124 eda8 268a 0d24 2f2b eb99 40aa
00000180: eb28 c1a8 edaa 899c 2da9 a522 7425 d5a5
00000190: 94a3 689c d6a0 28a1 e12a cca8 8b28 eea8
000001a0: f125 9029 5ea8 f12a 27a3 b7a4 1faa 732a
000001b0: e829 57a9 c721 31a6 c9a5 1222 18a0 979f
000001c0: 21a9 3fa9 6a2a 042a 63a5 a6a5 1fa0 a0a8
000001d0: b127 df1d faa9 2da9 a29e dc20 3927 bf27
000001e0: 0829 f7a6 8229 bfa7 f31e 24a7 7f9f 7f28
000001f0: 56a9 1a15 5c16 d81d efa9 3226 a828 082a
0.015594 -0.0268 0.0116 -0.03397 0.00866 -0.03595 0.0557 -0.03354
-0.00813 0.01025 -0.03687 -0.009926 -0.002607 -0.03864 -0.04034 -0.01883
0.0367 -0.05826 -0.03946 -0.01287 -0.005386 0.0428 0.02016 0.05368
-0.015564 0.04074 0.04034 -0.0398 -0.003704 -0.03055 0.004875 -0.02542
-0.01444 0.05826 0.01576 0.03198 0.02126 0.0517 0.01196 -0.0337
0.04477 0.03906 -0.02222 0.01538 -0.03842 0.01274 -0.01877 -0.01083
-0.005486 -0.04593 0.03174 0.05496 -0.0399 0.001212 -0.0519 -0.03925
0.04263 -0.0379 -0.0388 -0.002684 -0.03073 0.05658 0.00909 0.05173
-0.03574 -0.02534 -0.01411 -0.02873 0.010864 0.04706 0.02492 0.0358
-0.0422 0.0004098 -0.03696 -0.02945 0.028 0.02705 0.02473 0.0342
0.0567 -0.0139 0.04926 -0.03546 0.053 -0.003906 -0.01578 0.0428
0.02411 0.010605 -0.03546 -0.0429 -0.05383 -0.03497 -0.02138 -0.03065
0.02187 -0.04037 -0.004177 -0.0271 0.05774 -0.02216 0.02997 0.03308
-0.0204 -0.02426 -0.02672 0.04144 0.02371 0.057 -0.003561 -0.05927
-0.0614 -0.01747 -0.0003502 0.01501 -0.02104 -0.02113 0.03384 0.03748
0.03888 0.03046 0.0561 -0.0335 -0.02402 -0.0258 -0.03708 -0.02013
-0.0391 0.04947 0.04642 0.01709 -0.02734 -0.04095 -0.01697 0.004845
-0.03592 0.01351 -0.02443 0.02835 -0.04044 -0.03552 -0.02867 0.01637
-0.010994 -0.0379 -0.00468 0.04254 -0.0538 0.0445 0.0495 -0.03323
0.03027 0.04547 -0.04828 0.04895 -0.05414 0.015076 -0.01054 -0.05225
-0.04205 0.002052 -0.0308 0.02551 -0.02629 -0.02016 -0.04755 0.03162
0.03577 0.013885 -0.046 -0.00947 -0.0208 -0.0447 0.0492 -0.04184
0.03534 -0.01767 -0.007004 0.0515 -0.03635 0.02345 0.0267 -0.00945
-0.03314 0.01613 -0.03848 -0.0001876 0.01582 0.05612 -0.00289 -0.04883
0.03842 -0.03714 -0.0541 -0.00443 -0.04044 0.01298 0.0213 -0.02278
-0.0148 -0.004303 -0.009445 -0.01007 0.05374 -0.03748 0.0355 -0.0385
0.02321 0.04346 -0.03412 0.05423 -0.01397 -0.01842 -0.04782 0.05038
0.04614 -0.04172 0.011284 -0.02419 -0.0226 0.011856 -0.007996 -0.007412
-0.04007 -0.041 0.0501 0.047 -0.02104 -0.02206 -0.00805 -0.03613
0.03004 0.005733 -0.0467 -0.04044 -0.006477 0.00949 0.02821 0.03026
0.0393 -0.0272 0.04303 -0.03026 0.006786 -0.0279 -0.00732 0.03513
-0.0417 0.0012455 0.001553 0.005707 -0.04636 0.0242 0.03638 0.04712

sequential/conv2d_4/Conv2D f2 [50, 3, 3, 40]
00000000: 4128 61a6 8426 7ea7 e1a6 d925 c2ab f120
00000010: b525 7928 7fa0 8b2c 6128 471f 0ba0 aea8
00000020: 6a28 b1a8 612b 9920 1814 fbad 6ca9 e3a9
00000030: 12aa 0029 ba2a aeaa 31ab 4724 c32c aaa9
00000040: b52c 6e25 1322 692f d3a8 132d 45a3 89aa
00000050: daa8 9c1e f9ac f3a2 e7aa 051b 871d 5623
00000060: 0ea4 c51d 5c8c c4ac d82d 07ab ec2a ada5
00000070: 27a9 fcac 13aa 31ac 461d 32ac 8728 522e
00000080: 1e2d e2ab 15a9 522d 9b2b 3c2c 7c2c 41ae
00000090: 8324 0925 5217 3e22 e7a9 192b cf2f 27ab
000000a0: 4ba8 762e b8aa f3a8 772d dc91 1ba6 06ac
000000b0: 91ad cd2c 2b2c 7d2c 2929 09a8 4ea9 9c2d
000000c0: d5aa 85a6 0ba7 9d2c 742a b8a8 661e 2627
000000d0: 6329 6327 4dac ab25 6d2b f729 f02c 3aa8
000000e0: 2b2b 092f 762c c12e 3c21 d119 7aa7 1d28
000000f0: 7428 e02a 6ca7 20a8 2fad 2122 fd28 43a4
00000100: e424 1f2c 9329 e6ab 67ac 04a7 d72c 422c
00000110: f1ab 559e 12a9 beab aea6 1d2c 862b c5ab
00000120: 7d29 8798 c72b f02d da2a c3a9 92a4 292a
00000130: e4a6 ac27 5628 d3ae 0ea8 cc2a 4b2f 2eac
00000140: ce2c 6da8 ea28 242d 8b29 27ad 6fa5 c62e
00000150: 062a c12c 0e2d 22ad 69a4 6411 912d eea4
00000160: dba9 6f2c 12a4 ef2c b6a8 5ea5 3a9b 8e9d
00000170: ffa9 472c 732c d608 dd2c 0f2c 782d fc2a
00000180: 9627 6d2c 1727 faab b4ae 0dae 8b92 a8a4
00000190: 581d f5ae 35ad 732c bda4 ecac 532c 81a5
000001a0: 4c23 cc29 9e2d 7da9 3f29 dc2c bbaa 642e
000001b0: aa2e 1025 acad 2e9e 6fac 1a2b 2fad c42c
000001c0: fd2b 0026 4a2c 5bab 832b 5128 75a9 7fa3
000001d0: ed25 aeac 732d 79a4 c69f a9ab bc2e 47a9
000001e0: 4427 67a5 da2b d2a9 c2a3 0aac 032c 44a9
000001f0: cc2c f725 5a2c 072c 92a8 3e24 632a 6624
0.03323 -0.02492 0.02545 -0.02927 -0.02687 0.02284 -0.0606 0.00965
0.0223 0.03494 -0.00878 0.071 0.0342 0.007107 -0.0079 -0.03656
0.0345 -0.03665 0.05765 0.00898 0.000999 -0.09344 -0.04236 -0.046
-0.04742 0.03906 0.05255 -0.0522 -0.05618 0.01671 0.0744 -0.04425
0.07355 0.02121 0.01186 0.1158 -0.0377 0.0793 -0.0142 -0.05106
-0.0379 0.006454 -0.0777 -0.01357 -0.05392 0.003428 0.005398 0.01433
-0.01584 0.005634 -0.000266 -0.07446 0.0913 -0.0549 0.05408 -0.02217
-0.04025 -0.0779 -0.04745 -0.0655 0.00515 -0.06555 0.03537 0.09875
0.07996 -0.06158 -0.0397 0.0831 0.05942 0.06616 0.07007 -0.0977
0.01762 0.01967 0.001787 0.01219 -0.0461 0.05545 0.122 -0.05588
-0.03354 0.10095 -0.0525 -0.03867 0.0854 -0.0007153 -0.02385 -0.06287
-0.087 0.075 0.0651 0.0701 0.0403 -0.03152 -0.04144 0.08765
-0.05338 -0.02547 -0.02751 0.0721 0.0504 -0.03687 0.00625 0.02792
0.04208 0.02885 -0.0672 0.02214 0.058 0.0466 0.07715 -0.03302
0.056 0.1099 0.0697 0.1055 0.01022 0.00284 -0.0292 0.03214
0.0348 0.0537 -0.02899 -0.03223 -0.081 0.01197 0.03897 -0.01665
0.0191 0.0644 0.04355 -0.0617 -0.0688 -0.0274 0.0756 0.0665
-0.06204 -0.006184 -0.0396 -0.0605 -0.0261 0.0643 0.05878 -0.0607
0.04288 -0.00221 0.06076 0.0928 0.05353 -0.045 -0.01785 0.04813
-0.02692 0.02997 0.03387 -0.1066 -0.03168 0.0531 0.11395 -0.0653
0.0751 -0.03458 0.0384 0.0803 0.0433 -0.0805 -0.02122 0.10583
0.04706 0.0743 0.079 -0.0802 -0.01723 0.000658 0.087 -0.01926
-0.04575 0.0693 -0.0159 0.0771 -0.0368 -0.02097 -0.003529 -0.005424
-0.04684 0.06683 0.0695 0.0001476 0.076 0.0634 0.08545 0.05457
0.02963 0.06915 0.0277 -0.06232 -0.10474 -0.09454 -0.0007987 -0.01819
0.00522 -0.1087 -0.08136 0.0695 -0.01851 -0.0769 0.06757 -0.0215
0.01425 0.0453 0.08777 -0.04288 0.041 0.0759 -0.05258 0.09985
0.1041 0.01978 -0.0886 -0.006035 -0.0693 0.05548 -0.081 0.07446
0.0624 0.02344 0.067 -0.05746 0.0587 0.03372 -0.04263 -0.01464
0.02315 -0.0731 0.08514 -0.01747 -0.00759 -0.05984 0.1052 -0.04123
0.02838 -0.0211 0.06134 -0.04547 -0.01515 -0.0631 0.0627 -0.04114
0.07495 0.0233 0.068 0.0629 -0.0357 0.01657 0.0499 0.01718
