section_model.tflite (tflite, 245024 bytes, 12 tensors)

dense_1/bias f2 [5]
-0.02972 -0.011246 -0.02353 -0.033 0.0425
00000000: 9ca7 c2a1 06a6 39a8 7129

dense/bias f2 [128]
-0.0284 -0.00966 -0.01746 -0.0158 0.05328 0.05136 0.03833 -0.01513
0.03882 0.03937 0.004757 0.0396 -0.02039 0.04294 0.00905 0.08
0.0409 -0.012405 -0.0138 0.02528 0.00531 0.0387 0.0348 0.0434
-0.02513 -0.02957 -0.01043 0.02911 -0.0117 -0.01204 -0.00662 0.003664
0.02446 0.01837 -0.01381 0.01081 0.01378 0.01062 -0.012314 -0.008354
0.0331 -0.00908 -0.02193 0.01085 -0.01106 -0.008 0.04398 0.03436
0.03592 0.04758 -0.0173 0.04846 -0.01161 0.01393 -0.007835 -0.01254
-0.00494 -0.003183 -0.03607 -0.009056 -0.0137 -0.0218 -0.007484 0.02626
-0.01366 0.024 0.04602 0.0354 0.05255 -0.02028 0.010796 -0.003054
0.02892 0.01941 -0.01289 0.03053 0.06793 0.02509 0.007526 0.00836
-0.00989 -0.001239 0.0404 -0.02808 -0.00678 0.0178 0.04395 0.00749
-0.003757 -0.01242 -0.01576 -0.02013 -0.02776 -0.01483 -0.0001792 0.03998
0.02402 -0.03378 -0.010155 -0.00377 -0.007298 -0.02077 -0.00804 0.0333
0.0389 -0.01575 -0.02472 0.013565 -0.008316 0.00982 0.003252 -0.008514
0.002926 0.03174 0.0294 -0.01101 -0.01959 -0.01186 -0.01772 0.05234
0.0629 -0.02548 0.04163 -0.01496 -0.02112 0.03992 -0.006138 0.0489
00000000: 45a7 f2a0 78a4 0ba4 d22a 932a e828 bfa3
00000010: f828 0a29 df1c 1229 38a5 7f29 a220 1f2d
00000020: 3c29 5aa2 11a3 7926 701d f428 7428 8e29
00000030: 6fa6 92a7 57a1 7427 fea1 2aa2 c79e 811b
00000040: 4326 b424 12a3 8921 0e23 7021 4ea2 47a0
00000050: 3d28 a6a0 9da5 8e21 aaa1 19a0 a129 6628
00000060: 9928 172a 6ea4 342a f2a1 2223 03a0 6ca2
00000070: 0f9d 859a 9ea8 a3a0 04a3 95a5 aa9f b926
00000080: fea2 2526 e429 8828 ba2a 31a5 8721 419a
00000090: 6727 f824 9aa2 d127 592c 6c26 b51f 4820
000000a0: 10a1 1395 2c29 30a7 f19e 8f24 a029 ab1f
000000b0: b29b 5ca2 09a4 27a5 1ba7 98a3 df89 1e29
000000c0: 2626 53a8 33a1 b99b 799f 51a5 1ea0 4328
000000d0: fb28 08a4 54a6 f222 42a0 0721 a91a 5ca0
000000e0: fe19 1028 8727 a3a1 04a5 13a2 89a4 b32a
000000f0: 072c 86a6 5429 a9a3 68a5 1c29 499e 422a

conv2d_3/bias f2 [64]
-0.007168 0.02765 0.0211 -0.006924 0.0131 0.04544 0.001497 0.02116
0.010216 -0.01537 0.02266 -0.006786 -0.004738 0.014 -0.02736 0.03763
-0.001865 -0.00891 0.01197 0.0122 0.0572 -0.03375 -0.0006323 -0.002748
-0.00993 -0.0006633 0.04153 -0.0186 -0.00763 -0.03235 0.02502 -0.005043
0.0407 -0.001171 0.006546 0.0445 0.01121 -0.01991 -0.00677 0.01245
0.03094 0.02243 -0.007076 -0.01735 -0.01605 0.006966 0.01987 0.0281
0.02069 0.01307 0.01787 0.04517 0.02911 -0.003925 0.01997 -0.0092
-0.00959 -0.007683 -0.01111 -0.007008 0.03806 0.01323 0.00521 0.00783
00000000: 579f 1427 6725 179f b522 d129 2216 6b25
00000010: 3b21 dfa3 cd25 f39e da9c 2b23 01a7 d128
00000020: a497 90a0 2122 3f22 522b 52a8 2e91 a199
00000030: 16a1 6f91 5129 c3a4 d09f 24a8 6826 2a9d
00000040: 3629 cc94 b41e b229 bd21 19a5 ef9e 6022
00000050: ec27 be25 3f9f 71a4 1ca4 221f 1625 3227
00000060: 4c25 b122 9324 c829 7427 059c 1d25 b6a0
00000070: e9a0 de9f b0a1 2d9f df28 c622 561d 0220

conv2d_2/bias f2 [64]
0.01405 -0.03754 0.01259 -0.004368 -0.01001 0.0217 0.0116 0.02364
0.01952 -0.02284 -0.03357 -0.011505 0.02257 -0.02142 0.005733 -0.0236
0.02202 0.05457 0.02342 0.02667 0.01596 0.03064 0.02332 -0.009
0.02051 0.01014 0.03806 -0.01686 -0.05484 0.03833 0.02869 -0.00752
-0.03375 -0.001858 0.0464 0.008095 -0.0608 0.006218 -0.02275 -0.01356
-0.02846 0.03552 -0.05182 -0.006317 0.09357 0.03156 0.00929 -0.02803
-0.04373 0.001112 0.00985 -0.01091 -0.01134 -0.01591 -0.01552 0.01851
-0.00905 -0.01384 -0.04352 -0.05414 -0.00842 0.03873 0.01094 0.03096
00000000: 3223 cea8 7222 799c 20a1 8e25 f021 0d26
00000010: ff24 d9a5 4ca8 e4a1 c725 7ca5 df1d 0ba6
00000020: a325 fc2a ff25 d426 1624 d827 f825 9ca0
00000030: 4025 3121 df28 51a4 05ab e828 5827 b39f
00000040: 52a8 9c97 f029 2520 c8ab 5e1e d3a5 f1a2
00000050: 49a7 8c28 a2aa 789e fd2d 0a28 c220 2da7
00000060: 99a9 8e14 0b21 96a1 cea1 13a4 f2a3 bd24
00000070: a2a0 16a3 92a9 eeaa 50a0 f528 9a21 ed27

conv2d_1/bias f2 [32]
-0.0627 -0.007153 0.006428 -0.05746 -0.0135 -0.002043 0.0417 -0.01048
-0.00904 -0.01663 -0.0944 -0.00943 -0.0727 -0.004715 0.01859 -0.04007
-0.0502 -0.01593 0.02155 -0.06235 -0.004288 0.00237 -0.03162 -0.02829
0.00948 -0.01043 0.005554 -0.010704 -0.00702 0.00828 -0.006603 -0.01114
00000000: 03ac 539f 951e 5bab e9a2 2f98 5629 5ea1
00000010: a1a0 42a4 0bae d4a0 a7ac d49c c224 21a9
00000020: 6daa 14a4 8425 fbab 649c db18 0ca8 3ea7
00000030: db20 57a1 b01d 7ba1 309f 3d20 c39e b4a1

conv2d/bias f2 [32]
0.074 0.02167 0.0181 -0.0679 0.02583 0.0422 -0.1097 -0.06866
0.02382 -0.0202 -0.02788 -0.0881 0.01446 0.04443 0.0753 0.01499
-0.00857 0.006718 -0.05664 0.068 0.01935 0.01394 0.04666 -0.0735
-0.0649 -0.0551 -0.001476 0.008286 -0.00776 0.01637 -0.0971 -0.0792
00000000: bc2c 8c25 a224 58ac 9d26 6729 05af 65ac
00000010: 1926 2ca5 23a7 a3ad 6723 b029 d22c ad23
00000020: 63a0 e11e 40ab 5a2c f424 2323 f929 b4ac
00000030: 27ac 0eab 0c96 3e20 f29f 3124 37ae 12ad

sequential/dense/MatMul f2 [128, 256]
0.02388 -0.05005 -0.03467 0.0825 -0.02888 -0.0296 -0.08685 0.03476
-0.02507 -0.03476 0.03114 0.02446 0.0916 -0.0781 -0.10486 0.01383
0.07007 -0.05533 0.1279 -0.0624 0.0564 -0.1444 -0.1146 0.001755
0.04257 -0.02629 0.0643 0.11597 -0.003918 -0.03595 -0.0814 -0.01277
-0.1152 0.0721 -0.06946 -0.1316 -0.01435 0.0682 -0.0837 -0.0914
-0.04047 -0.05835 -0.1036 -0.0888 -0.0476 0.0748 -0.01904 -0.07764
-0.1411 -0.01959 0.06198 -0.1002 -0.1205 -0.1295 -0.09875 -0.02122
-0.0498 -0.071 0.1128 -0.113 -0.0999 -0.03903 0.07043 -0.09265
-0.05505 -0.01859 0.00262 -0.05618 0.0547 -0.0788 -0.1097 0.002691
-0.1061 0.01212 0.0949 -0.1119 -0.0007105 0.0599 0.0782 0.0898
0.0929 -0.1432 0.003773 -0.05914 0.00793 0.06213 0.04813 -0.083
-0.06015 0.00721 -0.0257 -0.046 -0.00336 -0.1086 -0.006287 0.03418
0.0999 0.1008 0.0137 -0.1277 -0.10596 -0.0722 -0.0444 -0.05667
-0.05502 0.04697 0.0977 -0.116 -0.03183 -0.1205 0.02547 -0.1709
-0.01404 0.007336 0.00952 -0.09125 0.0773 -0.08 0.1098 0.0674
0.03146 0.08685 -0.0667 -0.05447 -0.11163 0.0948 -0.11334 0.06213
-0.07404 -0.1118 -0.10724 -0.0664 0.02606 -0.005756 -0.003372 -0.0775
-0.05103 0.0334 -0.1332 -0.04666 -0.11285 -0.03458 0.0516 -0.08887
0.0746 0.04947 -0.0706 0.03555 -0.01401 -0.0285 -0.0903 -0.0771
-0.05057 -0.1207 -0.00449 0.104 -0.03049 0.06027 -0.11707 0.00716
-0.10486 0.0714 -0.0368 0.0531 -0.0219 0.06192 -0.066 -0.10376
-0.129 -0.06866 -0.0597 -0.0639 0.092 0.02483 -0.06058 -0.05872
-0.000551 -0.1247 -0.02339 -0.03198 0.01048 0.005573 -0.1261 -0.0819
-0.12054 0.1236 0.005455 -0.1141 -0.1384 -0.1025 -0.0657 0.0993
-0.07385 -0.0216 0.1203 -0.0007467 0.05383 -0.08136 0.01315 0.05997
-0.1233 -0.1017 -0.001004 -0.0674 -0.12225 0.02814 0.02147 0.0915
0.02054 0.0196 -0.1334 -0.1277 0.0408 -0.06192 -0.03058 -0.12103
0.09283 -0.0469 -0.1484 0.12256 -0.0937 -0.08795 -0.005333 -0.1279
-0.06915 0.1085 -0.01324 -0.1345 -0.0759 0.0742 0.08997 0.0329
-0.05844 -0.02798 -0.0906 -0.1425 -0.0761 0.03882 0.02945 0.07745
-0.02232 0.01103 0.09326 0.06036 -0.0181 -0.066 0.0618 0.073
0.1072 -0.126 0.004005 0.0514 0.10034 -0.04956 -0.06073 -0.0788
00000000: 1d26 68aa 70a8 482d 65a7 94a7 8fad 7328
00000010: 6ba6 73a8 f927 4326 dd2d 00ad b6ae 1523
00000020: 7c2c 15ab 1830 fdab 382b 9fb0 56af 3017
00000030: 7329 bba6 1d2c 6c2f 039c 9aa8 36ad 8aa2
00000040: 5faf 9d2c 72ac 36b0 59a3 5d2c 5bad d9ad
00000050: 2ea9 78ab a1ae afad 18aa ca2c e0a4 f8ac
00000060: 84b0 04a5 ef2b 6aae b6af 25b0 52ae 6fa5
00000070: 60aa 8bac 382f 3baf 65ae ffa8 822c eead
00000080: 0cab c2a4 5e19 31ab 002b 0bad 05af 8319
00000090: caae 3522 132e 29af d291 ab2b 012d bf2d
000000a0: f22d 95b0 ba1b 92ab 0f20 f42b 292a 50ad
000000b0: b3ab 621f 94a6 e3a9 e29a f3ae 709e 6028
000000c0: 652e 742e 0423 16b0 c8ae 9fac afa9 41ab
000000d0: 0bab 032a 412e 6daf 13a8 b6af 8526 78b1
000000e0: 30a3 831f e020 d7ad f22c 1fad 072f 502c
000000f0: 0728 8f2d 45ac f9aa 25af 112e 41af f42b
00000100: bdac 28af ddae 40ac ac26 e59d e89a f6ac
00000110: 88aa 4628 43b0 f9a9 39af 6da8 9b2a b0ad
00000120: c62c 552a 85ac 8d28 2ca3 4ca7 c7ad efac
00000130: 79aa baaf 999c a82e cea7 b72b 7eaf 551f
00000140: b6ae 922c b6a8 cc2a 9ba5 ed2b 39ac a4ae
00000150: 21b0 65ac a4ab 17ac e32d 5b26 c1ab 84ab
00000160: 8490 fbaf fda5 18a8 5e21 b51d 09b0 3ead
00000170: b7af e92f 961d 4daf 6eb0 8fae 34ac 5b2e
00000180: baac 88a5 b32f 1e92 e42a 35ad bc22 ad2b
00000190: e4af 82ae 1d94 50ac d3af 3427 7f25 db2d
000001a0: 4225 0525 45b0 16b0 3929 edab d4a7 bfaf
000001b0: f12d 01aa c0b0 d82f ffad a1ad 769d 18b0
000001c0: 6dac f22e c7a2 4eb0 dcac c02c c22d 3628
000001d0: 7bab 2aa7 ccad 8fb0 dfac f828 8a27 f52c
000001e0: b7a5 a621 f82d ba2b a2a4 39ac e92b ac2c
000001f0: dc2e 08b0 1a1c 942a 6c2e 58aa c6ab 0bad

sequential/dense_1/MatMul f2 [5, 128]
0.0962 0.08624 0.0912 -0.01883 0.0835 -0.2087 -0.1412 0.04745
0.1664 -0.07404 -0.1318 -0.2236 0.1342 -0.2085 0.08795 -0.1777
-0.01311 0.0314 -0.1978 0.1927 -0.2095 -0.1248 0.1188 0.0205
-0.02885 0.1858 0.08325 -0.0163 0.02895 -0.1862 0.04858 0.1375
0.0448 0.171 0.1353 -0.02563 0.1597 -0.01982 -0.02675 0.01057
-0.187 0.1621 -0.0876 0.066 0.00595 0.07336 0.1349 0.0989
0.1952 -0.091 0.1333 0.09375 0.0427 0.04483 -0.004078 -0.1063
0.02818 -0.2026 0.0432 0.1904 -0.12164 0.05466 0.10614 0.1427
0.0919 -0.1166 -0.09784 -0.2927 0.1866 0.03128 -0.218 -0.1819
0.08167 0.00668 0.1277 0.0802 0.0917 0.1614 0.12366 -0.0899
0.02003 -0.2646 0.0679 0.1461 -0.02737 -0.1458 0.00861 -0.0907
-0.11145 -0.05917 0.01408 0.1426 -0.172 -0.2024 0.000771 -0.1471
0.118 0.0721 -0.04813 -0.011925 0.05313 0.2455 0.0767 0.2097
0.01889 -0.04617 0.1661 -0.189 0.06216 0.014496 0.08966 0.06995
0.1703 -0.1871 -0.2136 0.0728 0.1116 0.058 0.0992 -0.1641
-0.1279 0.0924 -0.2393 -0.11914 -0.0957 -0.1948 0.0773 -0.001802
0.07385 -0.1494 -0.1069 -0.1141 -0.1298 -0.03107 -0.0732 0.1766
0.01178 0.2198 0.2083 -0.02962 -0.2195 0.1141 0.03592 -0.09467
0.11615 0.0446 0.155 0.05826 -0.2263 -0.05325 -0.135 0.08673
0.0684 0.1003 0.11255 0.1582 0.02266 0.08813 0.1885 0.01241
-0.0699 0.1345 -0.012215 -0.2173 -0.005486 -0.1528 0.1324 -0.1075
-0.1162 0.07733 -0.068 0.1804 -0.0938 0.1091 0.0487 -0.1559
0.03047 0.08057 0.1464 0.00997 -0.2007 0.01567 0.10516 -0.02942
0.085 -0.04288 0.0709 0.1892 0.08105 -0.1982 0.04834 -0.1053
0.1887 0.01674 -0.1809 -0.008286 -0.27 -0.03072 0.1343 -0.1487
-0.0881 -0.04947 0.03084 -0.006317 -0.251 -0.1626 -0.05994 -0.1819
-0.02643 0.1298 0.0319 0.0545 0.1774 0.05713 0.02113 0.0284
-0.1077 -0.0814 0.01985 0.0771 0.1315 -0.224 -0.1462 -0.03888
0.2098 -0.1197 -0.05783 -0.2219 0.1569 -0.03967 0.05377 -0.0536
0.2222 0.1401 -0.06207 -0.0321 0.1832 -0.225 -0.01371 0.1469
0.015144 0.1691 -0.1611 0.09644 0.00977 -0.09235 -0.1794 -0.2462
-0.11896 0.01301 -0.1656 0.0425 0.04984 -0.2023 0.1747 -0.3657
00000000: 282e 852d d62d d2a4 582d aeb2 85b0 132a
00000010: 5331 bdac 38b0 28b3 4b30 acb2 a12d b0b1
00000020: b6a2 0528 54b2 2b32 b4b2 fdaf 9a2f 3f25
00000030: 63a7 f231 542d 2ca4 6927 f5b1 382a 6630
00000040: bc29 7931 5430 90a6 1c31 13a5 d9a6 6921
00000050: fcb1 3031 9bad 392c 181e b22c 5130 542e
00000060: 3f32 d3ad 4430 002e 7729 bd29 2d9c ceae
00000070: 3727 7cb2 8829 1832 c9af ff2a cb2e 9130
00000080: e22d 76af 43ae afb4 f931 0128 fab2 d2b1
00000090: 3a2d d71e 1630 222d de2d 2a31 ea2f c1ad
000000a0: 2125 3cb4 582c ad30 02a7 aab0 6920 cead
000000b0: 22af 93ab 3523 9030 81b1 7ab2 5112 b5b0
000000c0: 8d2f 9d2c 29aa 1ba2 cd2a db33 e92c b632
000000d0: d624 e9a9 5131 0cb2 f52b 6c23 bd2d 7a2c
000000e0: 7331 fdb1 d6b2 a92c 242f 6d2b 592e 40b1
000000f0: 18b0 ea2d a8b3 a0af 20ae 3cb2 f22c 6297
00000100: ba2c c8b0 d7ae 4daf 27b0 f4a7 afac a731
00000110: 0822 0933 aa32 95a7 06b3 4d2f 9928 0fae
00000120: 6f2f b529 f630 752b 3eb3 d1aa 52b0 8d2d
00000130: 612c 6b2e 342f 1031 cd25 a42d 0832 5b22
00000140: 79ac 4e30 41a2 f4b2 9e9d e4b0 3d30 e1ae
00000150: 70af f32c 5aac c631 01ae fb2e 3c2a fdb0
00000160: cd27 282d af30 1b21 6cb2 0324 bb2e 88a7
00000170: 712d 7da9 8a2c 0e32 302d 58b2 302a bdae
00000180: 0a32 4924 cab1 3ea0 52b4 dda7 4c30 c2b0
00000190: a3ad 55aa e527 789e 04b4 34b1 acab d2b1
000001a0: c4a6 2730 1528 fa2a ad31 502b 6925 4527
000001b0: e5ae 36ad 1525 ef2c 3530 2bb3 aeb0 faa8
000001c0: b732 a9af 67ab 1ab3 0531 14a9 e22a dcaa
000001d0: 1c33 7c30 f2ab 1ca8 dd31 33b3 05a3 b330
000001e0: c123 6931 28b1 2c2e 0121 e9ad beb1 e1b3
000001f0: 9daf a922 4db1 7129 612a 79b2 9731 dab5

sequential/conv2d_1/Conv2D f2 [32, 5, 5, 32]
-0.11145 -0.03754 -0.08374 0.001654 -0.01924 -0.1151 0.02713 -0.03018
-0.05658 -0.04135 0.03372 0.015076 -0.05054 -0.05057 -0.0524 -0.0326
0.001114 0.03815 0.02705 -0.06805 0.024 -0.06247 0.04236 0.06586
0.04434 0.02371 -0.0631 0.02785 0.05136 0.02234 -0.0543 -0.0683
-0.142 -0.079 0.003016 -0.0284 0.00606 -0.06805 -0.00455 0.01633
-0.02937 -0.03854 -0.06525 0.01741 -0.00992 -0.03595 -0.0233 -0.02237
0.05054 0.01671 0.0439 -0.07574 -0.01032 -0.00907 0.01396 -0.001622
-0.04575 0.01651 0.0666 -0.02226 -0.06573 -0.02252 -0.02563 -0.04733
-0.1285 -0.0895 -0.003014 0.01636 -0.03827 -0.05527 -0.02275 -0.02489
-0.0957 -0.03482 -0.00518 0.0512 -0.004696 -0.0751 -0.05026 -0.03598
-0.0419 0.007545 -0.02985 -0.1465 -0.03793 -0.02502 0.00929 0.003597
0.0171 0.03937 0.006382 -0.0723 -0.005955 0.00873 -0.0372 0.01642
-0.0996 -0.0656 -0.001139 -0.06 -0.009056 -0.0785 0.05606 0.03084
-0.0972 -0.1003 0.02646 -0.04956 -0.05893 -0.03717 -0.05612 -0.051
-0.010086 0.0675 -0.01438 -0.05804 -0.0669 -0.02356 -0.03006 0.01709
-0.007675 0.04333 -0.00943 -0.01315 -0.00613 -0.04025 -0.00115 -0.0194
-0.0988 -0.006313 -0.0829 -0.0372 0.02293 -0.08984 0.02454 0.02377
-0.0681 -0.1131 -0.03668 -0.03427 0.01216 -0.10297 -0.09924 0.0363
0.04022 -0.02483 -0.06204 -0.1542 0.0207 -0.0686 -0.007664 -0.01427
-0.0297 -0.03787 0.02525 -0.0669 0.02722 -0.03238 -0.03528 -0.04062
-0.1118 -0.0734 -0.07135 0.0417 0.005722 -0.1188 0.015 -0.02289
-0.05347 0.02101 -0.02591 0.03513 0.00627 -0.1 -0.09064 -0.01639
-0.03017 -0.01309 -0.03256 -0.08466 -0.01308 -0.0775 0.04498 0.06537
-0.01796 0.02522 0.03625 -0.02621 -0.013 0.01614 -0.0133 0.02798
-0.01486 -0.0232 -0.02426 -0.01566 0.01564 -0.0498 0.07135 0.0426
-0.0583 0.0448 0.009926 0.000553 -0.01114 -0.09674 -0.0246 0.0443
-0.003117 0.02484 0.02672 -0.145 0.00762 -0.0604 0.05374 -0.02525
-0.01368 -0.05307 0.014786 -0.05786 -0.0645 0.0253 -0.04126 -0.01056
-0.01935 0.005356 0.01932 0.04163 -0.04828 -0.05417 0.0354 -0.02907
-0.06476 -0.0875 -0.02676 0.0233 -0.02876 -0.0754 -0.04645 0.0347
-0.0345 0.08093 0.05768 -0.10767 0.02847 -0.0963 -0.01213 0.04547
-0.04468 -0.04102 -0.02072 0.04825 -0.06116 0.06195 -0.03044 -0.026
00000000: 22af cea8 5cad c616 eda4 5eaf f226 baa7
00000010: 3eab 4ba9 5128 b823 78aa 79aa b5aa 2ca8
00000020: 9014 e228 ed26 5bac 2526 ffab 6c29 372c
00000030: ad29 1226 0aac 2127 932a b825 f3aa 5fac
00000040: 8bb0 0ead 2d1a 45a7 351e 5bac a99c 2e24
00000050: 85a7 efa8 2dac 7524 14a1 9aa8 f7a5 baa5
00000060: 782a 4724 9f29 d9ac 49a1 a5a0 2623 a596
00000070: dba9 3a24 432c b3a5 35ac c4a5 90a6 0faa
00000080: 1db0 baad 2c9a 3024 e6a8 13ab d3a5 5fa6
00000090: 20ae 75a8 4e9d 8e2a cf9c ceac 6faa 9ba8
000000a0: 5da9 ba1f a4a7 b0b0 dba8 68a6 c220 5e1b
000000b0: 6124 0a29 891e a1ac 199e 7820 c3a8 3424
000000c0: 60ae 33ac aa94 aeab a3a0 06ad 2d2b e527
000000d0: 39ae 6bae c626 58aa 8bab c2a8 2fab 87aa
000000e0: 2aa1 522c 5da3 6eab 48ac 08a6 b2a7 6024
000000f0: dc9f 8c29 d4a0 bca2 479e 27a9 b694 f7a4
00000100: 53ae 779e 4ead c3a8 df25 c0ad 4826 1626
00000110: 5cac 3daf b2a8 63a8 3a22 97ae 5aae a528
00000120: 2629 5ba6 f1ab efb0 4d25 64ac d99f 4ea3
00000130: 9aa7 d9a8 7726 48ac f826 25a8 84a8 33a9
00000140: 28af b3ac 91ac 5629 dc1d 9aaf ae23 dca5
00000150: d8aa 6125 a2a6 7f28 6c1e 66ae cdad 32a4
00000160: b9a7 b4a2 2ba8 6bad b2a2 f6ac c229 2f2c
00000170: 99a4 7526 a428 b6a6 a8a2 2224 cfa2 2a27
00000180: 9ca3 f0a5 36a6 02a4 0124 60aa 912c 7429
00000190: 76ab bc29 1521 8810 b4a1 31ae 4ca6 ac29
000001a0: 629a 5c26 d726 a4b0 ce1f bbab e12a 77a6
000001b0: 01a3 cbaa 9223 68ab 21ac 7a26 48a9 68a1
000001c0: f4a4 7c1d f224 5429 2eaa efaa 8828 71a7
000001d0: 25ac 9aad daa6 f725 5da7 d3ac f2a9 7128
000001e0: 6aa8 2e2d 622b e4ae 4a27 2aae 36a2 d229
000001f0: b8a9 40a9 4ea5 2d2a d4ab ee2b cba7 a8a6

sequential/conv2d_2/Conv2D f2 [64, 3, 3, 32]
-0.01738 0.09406 0.0805 -0.06366 0.004696 -0.0829 0.0781 -0.01511
0.0235 -0.08636 -0.05078 -0.04507 0.005116 0.08246 0.0449 0.085
0.07654 0.0464 0.0696 0.03625 -0.007484 -0.05518 -0.0577 0.05258
0.01066 0.0797 -0.02414 -0.011986 -0.05197 0.0488 0.005356 0.00979
0.06366 0.05304 -0.011536 -0.0601 0.0773 0.02301 0.04633 -0.0792
0.05072 0.084 0.005436 -0.03464 -0.01665 -0.02303 -0.05148 -0.00738
-0.07776 0.04517 0.0812 -0.04282 0.02592 -0.01624 -0.06915 -0.05853
0.08136 0.0882 0.09344 0.02443 -0.04953 -0.02353 -0.02615 -0.0333
-0.01863 0.05112 8.386e-05 0.02463 0.0836 0.06274 -0.08093 -0.03668
0.02943 0.05542 0.0403 -0.013756 0.0256 0.06122 -0.006893 0.03708
-0.0429 -0.02367 -0.04007 -0.000118 -0.03186 0.00761 0.03833 0.06244
0.10266 0.05347 -0.006805 -0.06354 -0.0817 0.07947 -0.0252 -0.02734
-0.0087 0.10876 0.0525 -0.07806 -0.0758 -0.06757 0.0523 0.03247
0.01148 0.03433 0.03195 0.07684 -0.05762 0.08594 -0.0505 0.0801
0.01088 -0.06537 -0.0744 -0.094 -0.05463 -0.0153 0.04095 0.01712
0.0749 0.08276 0.0937 0.03415 -0.0195 0.04938 0.0157 -0.0762
0.01556 -0.01616 -0.0001928 -0.0337 0.03906 -0.04736 -0.0607 0.01862
-0.00564 0.0063 -0.01938 0.0252 0.005074 0.0648 0.10205 -0.02487
0.03882 0.07465 0.007412 0.03125 -0.0402 0.0744 -0.0324 0.0725
-0.03738 -0.01881 0.0811 0.0877 0.0665 -0.03812 -0.02277 0.01014
-0.02695 0.0729 0.0764 -0.0121 0.01683 0.05966 -0.05902 0.04544
-0.01611 0.05157 -0.03137 0.05197 0.03854 0.0869 0.002815 -0.00227
0.05685 -0.02673 0.05084 -0.0705 0.05685 0.01662 0.06232 0.0932
0.03983 -0.0645 0.04425 -0.02713 0.0791 0.0916 0.00814 0.02614
-0.02667 0.03888 0.07355 -0.04874 -0.05093 -0.04 0.05392 0.06064
0.0855 -0.03574 0.0201 0.0163 -0.004963 -0.077 -0.0655 -0.0329
0.02066 -0.03574 0.05972 -0.003157 -0.0672 -0.01993 -0.08527 -0.014595
-0.05515 0.06683 0.0846 0.03638 -0.048 -0.04367 0.07007 -0.04642
0.0845 0.0951 -0.03302 -0.05557 -0.0444 0.01508 0.04846 -0.07764
0.02992 0.02267 0.03723 0.01128 0.01091 0.02922 0.0444 -0.0659
0.04254 0.03522 -0.03198 -0.06586 0.06082 -0.06464 0.0499 0.08575
0.01204 -0.002903 0.0392 -0.00503 -0.02116 -0.03366 -0.04507 0.02373
00000000: 73a4 052e 272d 13ac cf1c 4ead 002d bca3
00000010: 0426 87ad 80aa c5a9 3d1d 472d bf29 712d
00000020: e62c f029 742c a428 aa9f 10ab 63ab bb2a
00000030: 7521 1a2d 2ea6 23a2 a7aa 3f2a 7c1d 0321
00000040: 132c ca2a e8a1 b1ab f22c e425 ee29 12ad
00000050: 7e2a 602d 911d 6fa8 43a4 e5a5 97aa 8f9f
00000060: faac c829 322d 7ba9 a326 28a4 6dac 7eab
00000070: 352d a52d fb2d 4126 57aa 06a6 b2a6 43a8
00000080: c5a4 8b2a 7f05 4e26 5a2d 042c 2ead b2a8
00000090: 8927 182b 2929 0ba3 8e26 d62b 0f9f bf28
000000a0: 7ea9 0fa6 21a9 bc87 14a8 cb1f e828 fe2b
000000b0: 922e d82a f89e 11ac 3bad 162d 74a6 00a7
000000c0: 74a0 f62e b82a ffac daac 53ac b22a 2828
000000d0: e121 6528 1728 eb2c 60ab 802d 77aa 202d
000000e0: 9221 2fac c3ac 04ae feaa d5a3 3e29 6224
000000f0: cb2c 4c2d ff2d 5f28 fea4 522a 0524 e0ac
00000100: f723 23a4 518a 50a8 0029 10aa c5ab c424
00000110: c69d 741e f6a4 7426 321d 262c 882e 5ea6
00000120: f828 c72c 971f 0028 25a9 c32c 26a8 a42c
00000130: c9a8 d1a4 312d 9d2d 422c e1a8 d4a5 3121
00000140: e6a6 aa2c e42c 32a2 4f24 a32b 8eab d129
00000150: 20a4 9a2a 04a8 a72a ef28 902d c419 a698
00000160: 472b d8a6 822a 83ac 472b 4124 fa2b f72d
00000170: 1929 21ac aa29 f2a6 102d dd2d 2b20 b126
00000180: d4a6 fa28 b52c 3daa 85aa 1fa9 e72a c32b
00000190: 792d 93a8 2525 2c24 159d eeac 31ac 36a8
000001a0: 4a25 93a8 a52b 779a 4dac 1aa5 75ad 79a3
000001b0: 0fab 472c 6a2d a828 25aa 97a9 7c2c f1a9
000001c0: 682d 162e 3aa8 1dab afa9 b923 342a f8ac
000001d0: a927 ce25 c428 c621 9621 7b27 af29 38ac
000001e0: 7229 8228 18a8 37ac c92b 23ac 632a 7d2d
000001f0: 2a22 f299 0529 279d 6ba5 4fa8 c5a9 1326

sequential/conv2d_3/Conv2D f2 [64, 3, 3, 64]
-0.0199 -0.02783 0.04907 -0.05264 -0.01854 0.05124 -0.04016 -0.01582
0.01149 -0.00813 -0.07886 0.06235 0.0363 -0.01296 0.03818 -0.03827
-0.0659 0.04092 0.03983 -0.03622 -0.03528 -0.05276 -0.00068 -0.01787
-0.02937 -0.00897 -0.03113 -0.03287 0.0372 0.01646 -0.00862 -0.04153
-0.049 -0.07715 -0.02165 -0.02255 -0.05786 -0.0325 -0.0424 0.0186
0.04913 -0.06757 0.0219 -0.005604 -0.05847 -0.06635 -0.0333 0.0178
-0.004593 -0.01718 -0.010635 -0.02371 -0.03772 -0.05054 -0.02414 -0.03247
-0.04672 0.02742 -0.0719 -0.001663 -0.05292 0.05588 -0.02843 0.05408
0.004375 0.05258 0.02625 -0.01799 -0.0575 -0.03894 -0.00964 -0.005074
0.04825 -0.01999 0.02382 0.04544 0.04117 -0.05127 -0.03696 -0.0682
-0.02606 0.01505 0.0641 -0.02605 -0.0363 0.01064 -0.0758 -0.0504
0.05847 -0.02786 -0.0157 0.01854 -0.04605 -0.04373 -0.07434 0.00231
-0.01625 -0.0686 0.02177 -0.012054 -0.0004153 0.06726 -0.002148 0.02025
0.06464 0.05933 0.005424 0.03214 0.01735 0.02596 0.04367 0.03076
-0.0705 -0.0658 0.03494 0.04742 -0.05017 -0.05518 -0.0702 0.004887
-0.0624 0.05124 0.013916 -0.02213 -0.04095 0.05804 -0.0303 -0.05487
0.02283 0.006676 -0.0187 0.00426 -0.04245 -0.06036 -0.03467 -0.02411
0.03082 -0.04318 0.061 -0.0778 -0.0252 0.01608 -0.04327 -0.00539
-0.04807 -0.06256 0.06464 0.01875 -0.01814 0.0664 0.02412 -0.03513
-0.04095 -0.007294 0.04858 -0.03656 0.0332 0.0457 -0.04688 -0.0773
-0.0509 -0.07245 0.0478 0.02249 -0.03015 -0.009094 -0.01292 -0.05038
-0.003712 -0.0635 0.0568 -0.05447 0.01854 -0.02068 0.01461 0.00849
-0.02844 -0.0431 -0.07684 -0.05383 -0.0456 -0.01102 0.05048 0.03934
0.05414 0.04593 0.0136 -0.0394 0.004436 0.0041 0.001704 -0.0708
-0.05582 -0.03116 -0.02774 0.02715 0.01825 0.02182 0.03029 0.0582
-0.0779 -0.05667 -0.0374 0.006577 -0.0195 -0.05273 -0.00861 0.03406
-0.0215 -0.0769 -0.0618 -0.04825 0.00637 0.0718 0.04605 0.04764
-0.03992 -0.013756 -0.06647 -0.04163 0.02592 -0.0697 0.03607 0.0613
-0.0492 -0.01284 -0.04492 0.0671 -0.04285 0.06152 -0.04333 0.03146
-0.04697 -0.0462 0.00802 -0.03122 -0.0645 -0.04395 0.04623 -0.03035
-0.0669 -0.006588 0.0195 -0.0243 0.005264 0.01189 -0.03506 -0.004475
0.004925 0.04245 -0.05893 -0.005867 -0.0691 -0.0331 0.0277 -0.0002111
00000000: 18a5 20a7 482a bdaa bfa4 8f2a 24a9 0da4
00000010: e221 2aa0 0cad fb2b a528 a3a2 e328 e6a8
00000020: 38ac 3d29 1929 a3a8 84a8 c1aa 9291 93a4
00000030: 85a7 98a0 f8a7 35a8 c328 3724 6aa0 51a9
00000040: 46aa f0ac 8ba5 c6a5 68ab 29a8 6da9 c324
00000050: 4a2a 53ac 9b25 bd9d 7cab 3fac 43a8 8f24
00000060: b49c 66a4 72a1 12a6 d4a8 78aa 2ea6 28a8
00000070: fba9 0527 9aac d096 c6aa 272b 47a7 ec2a
00000080: 7b1c bb2a b826 9ba4 5cab fca8 f0a0 329d
00000090: 2d2a 1ea5 1926 d129 4529 90aa bba8 5dac
000000a0: aca6 b523 1a2c aba6 a5a8 7321 daac 74aa
000000b0: 7c2b 22a7 05a4 bf24 e5a9 99a9 c2ac bb18
000000c0: 29a4 64ac 9325 2ca2 ce8e 4e2c 6698 2f25
000000d0: 232c 982b 8e1d 1d28 7124 a526 9729 e027
000000e0: 83ac 36ac 7928 122a 6caa 10ab 7eac 011d
000000f0: fdab 8f2a 2023 aaa5 3ea9 6e2b c2a7 06ab
00000100: d825 d61e caa4 5d1c 6fa9 baab 70a8 2ca6
00000110: e427 87a9 cf2b fbac 74a6 1e24 8aa9 859d
00000120: 27aa 01ac 232c cd24 a5a4 402c 2d26 7fa8
00000130: 3ea9 789f 382a aea8 4028 d929 00aa f2ac
00000140: 84aa a3ac 1e2a c225 b8a7 a8a0 9da2 73aa
00000150: 9a9b 10ac 452b f9aa bf24 4ba5 7b23 5920
00000160: 48a7 84a9 ebac e4aa d6a9 a4a1 762a 0929
00000170: ee2a e129 f722 0ba9 8b1c 331c fb16 88ac
00000180: 25ab faa7 1aa7 f326 ac24 9625 c127 732b
00000190: fcac 41ab caa8 bc1e fea4 c0aa 69a0 5c28
000001a0: 81a5 ecac e9ab 2daa 861e 982c e529 192a
000001b0: 1ca9 0ba3 41ac 54a9 a326 76ac 9e28 d92b
000001c0: 4caa 93a2 c0a9 4b2c 7ca9 e02b 8ca9 0728
000001d0: 03aa eaa9 1b20 fea7 21ac a0a9 eb29 c5a7
000001e0: 48ac bf9e fe24 39a6 641d 1622 7da8 959c
000001f0: 0b1d 6f29 8bab 029e 6cac 3da8 1727 eb8a

sequential/conv2d/Relu;sequential/conv2d/BiasAdd;sequential/conv2d_1/Conv2D;sequential/conv2d/Conv2D;conv2d/bias f2 [32, 7, 7, 3]
-9.15e-05 -5.573e-05 -7.73e-05 0.0002882 0.0002785 -0.000118 -2.706e-05 0.000323
-4.506e-05 -2e-07 0.0001638 -0.0001285 0.0003138 0.0002835 0.0001292 0.0003257
0.0001197 -3.12e-05 0.0002918 0.0002933 0.000123 0.00010973 -0.0001497 6e-07
-5.71e-05 0.0001932 -7.4e-05 -0.0001615 0.0001901 0.0001892 5.51e-05 0.0002437
0.000127 9.79e-05 7.4e-05 0.0002155 0.0001097 0.0002959 0.0001837 1.99e-05
0.0001049 0.0002062 -0.0002184 6.604e-05 8.85e-05 4.94e-05 0.0002301 5.56e-05
0.0001596 6.086e-05 1.186e-05 6.336e-05 0.00011325 -0.0001177 -0.00011563 0.0002599
-0.0001237 5.47e-05 0.0001409 3.886e-05 0.0002381 9.024e-05 0.0002275 -1.764e-05
-0.0002218 -0.0001842 -2.456e-05 -0.0001556 0.0001168 -0.0002362 0.000212 5.1e-06
-0.000113 3.1e-05 -0.0002553 -1.556e-05 -1e-05 -0.0001242 7.36e-05 -4.095e-05
-0.0001961 -8.4e-06 0.0001789 4.375e-05 -4.39e-05 0.0001173 0.0001546 -5.71e-05
0.0001342 -0.0001287 -0.0002222 -0.0001765 -6.14e-05 1.234e-05 -0.0001227 2.86e-05
-0.0001838 0.0002253 6.795e-05 -8.464e-05 -0.0001523 8.076e-05 3.73e-05 -4.65e-06
0.0001278 2.86e-05 1.01e-05 -0.0002396 -0.000335 9.227e-05 1.574e-05 5.71e-05
-0.0002213 -0.0002537 -0.0001917 4.137e-05 -0.0002373 -0.0001676 -5.48e-05 6.99e-05
-9.75e-05 -0.0001732 0.00011194 -0.0001566 0.0001475 -0.0001723 -0.0002842 0.00010914
-0.0002183 -0.0003543 -0.0002266 -0.0002692 -2.85e-05 -0.0002437 -1.32e-05 -0.0001312
-0.000165 3.18e-05 -0.0003457 -0.0001587 0.0001416 -0.0001897 9.74e-05 -0.0001248
2.2e-06 -0.0001122 -0.000265 0.00011384 2.51e-05 0.0001744 0.0001537 -3.797e-05
6.41e-05 0.0003536 0.00011724 -6.44e-05 0.0002759 0.000199 1.085e-05 0.0002333
-0.0002453 -3.743e-05 0.0001576 -0.0002154 -8.48e-05 0.0003893 0.0001471 -3.844e-05
-5.245e-05 -0.0002124 0.0001465 9.584e-05 -0.0001231 -0.000283 9.2e-05 -0.0001893
-2.4e-05 0.0003216 9.85e-05 0.0001497 0.0002499 -0.0001543 -0.0002406 0.0001911
-0.0002321 -9.04e-05 0.0001011 -0.0001667 -0.0001651 0.0003045 3.77e-05 -0.0002813
0.0001404 -0.0002472 -0.0001724 0.0003397 -0.0002859 -0.000261 0.0002007 -0.0002141
-3e-07 0.0002309 -0.0002239 -5.996e-05 0.0001923 -3.594e-05 -5.317e-05 6.217e-05
-0.0001795 0.0001767 0.0003676 -0.000244 -8.75e-05 0.0002172 -0.000256 -0.0002773
3.3e-05 -0.0002034 -9.894e-05 0.000342 -0.0001879 0.00010544 -7.47e-05 -0.0002309
3.3e-05 0.0003054 -3.9e-05 -0.0002668 0.0001761 -0.0002866 -1.16e-05 0.000157
9.644e-05 -0.0002135 -6.03e-05 4.89e-05 2.176e-05 0.0003293 8.2e-06 -0.0001376
0.00028 -5.73e-05 9.847e-05 0.000345 3.68e-05 -0.0002217 0.0003314 -0.0002708
-7.29e-05 0.0003114 0.0001062 0.0001395 0.0001835 -0.0003045 -7.963e-05 3.69e-05
00000000: ff85 a783 1185 b90c 900c bc87 c681 4b0d
00000010: f482 0380 5e09 3688 240d a50c 3c08 560d
00000020: d807 0b82 c80c ce0c 0808 3107 e888 0a00
00000030: be83 550a da84 4b89 3b0a 330a 9c03 fc0b
00000040: 2908 6a06 da04 100b 3007 d90c 050a 4e01
00000050: e006 c20a 288b 5404 cd05 3d03 8a0b a503
00000060: 3b09 fd03 c700 2704 6c07 b787 9487 420c
00000070: 0e88 9603 9e08 8c02 cd0b ea05 740b 2881
00000080: 458b 098a 9c81 1989 a807 bd8b f20a 5600
00000090: 6887 0802 2f8c 0581 a880 1288 d304 af82
000000a0: 6d8a 8d80 dd09 de02 e182 b007 1109 be83
000000b0: 6608 3888 488b c989 0684 cf00 0588 e001
000000c0: 068a 620b 7404 8c85 fe88 4b05 7202 4e80
000000d0: 3008 e001 a900 da8b 7d8d 0c06 0801 be03
000000e0: 408b 288c 488a b602 c78b 7e89 9783 9504
000000f0: 6486 ad89 5607 2289 d508 a589 a88c 2707
00000100: 278b ce8d 6d8b 698c de81 fc8b dd80 4d88
00000110: 6889 1602 aa8d 3389 a408 378a 6206 1788
00000120: 2500 5a87 578c 7607 a501 b709 0909 7d82
00000130: 3304 cb0d af07 3884 850c 850a b600 a50b
00000140: 058c 7482 2a09 0f8b 8f85 610e d208 8582
00000150: 7083 f68a cd08 4806 0988 a38c 0806 348a
00000160: 9381 450d 7506 e808 180c 0e89 e28b 430a
00000170: 9b8b ed85 a006 7689 6989 fd0c 7902 9c8c
00000180: 9a08 0d8c a689 910d af8c 478c 940a 048b
00000190: 0580 910b 568b ee83 4d0a 5b82 7c83 1304
000001a0: e289 ca09 060e ff8b bc85 1e0b 328c 8b8c
000001b0: 2a02 aa8a 7c86 9a0d 288a e906 e584 918b
000001c0: 2a02 010d 8e82 5f8c c509 b28c c380 2509
000001d0: 5206 ff8a f483 3403 6d01 650d 8a00 8288
000001e0: 960c c183 7406 a70d 6902 448b 6e0d 708c
000001f0: c784 1a0d f606 9208 030a fd8c 3885 6b02
